…
8 [19:40<00:00, 32.44it/s]Running loglikelihood requests: 100%|█████████▉| 60154/60168 [19:40<00:00, 27.40it/s]Running loglikelihood requests: 100%|█████████▉| 60158/60168 [19:40<00:00, 27.77it/s]Running loglikelihood requests: 100%|█████████▉| 60161/60168 [19:40<00:00, 22.87it/s]Running loglikelihood requests: 100%|█████████▉| 60166/60168 [19:41<00:00, 26.13it/s]Running loglikelihood requests: 100%|██████████| 60168/60168 [19:41<00:00, 50.94it/s]
2024-11-20:18:51:35,604 WARNING  [huggingface.py:1353] Failed to get model SHA for Gemma2ForCausalLM(
  (model): Gemma2Model(
    (embed_tokens): Embedding(256000, 3584, padding_idx=0)
    (layers): ModuleList(
      (0-41): 42 x Gemma2DecoderLayer(
        (self_attn): Gemma2Attention(
          (q_proj): Linear(in_features=3584, out_features=4096, bias=False)
          (k_proj): Linear(in_features=3584, out_features=2048, bias=False)
          (v_proj): Linear(in_features=3584, out_features=2048, bias=False)
          (o_proj): Linear(in_features=4096, out_features=3584, bias=False)
          (rotary_emb): Gemma2RotaryEmbedding()
        )
        (mlp): Gemma2MLP(
          (gate_proj): Linear(in_features=3584, out_features=14336, bias=False)
          (up_proj): Linear(in_features=3584, out_features=14336, bias=False)
          (down_proj): Linear(in_features=14336, out_features=3584, bias=False)
          (act_fn): PytorchGELUTanh()
        )
        (input_layernorm): Gemma2RMSNorm((3584,), eps=1e-06)
        (pre_feedforward_layernorm): Gemma2RMSNorm((3584,), eps=1e-06)
        (post_feedforward_layernorm): Gemma2RMSNorm((3584,), eps=1e-06)
        (post_attention_layernorm): Gemma2RMSNorm((3584,), eps=1e-06)
      )
    )
    (norm): Gemma2RMSNorm((3584,), eps=1e-06)
  )
  (lm_head): Linear(in_features=3584, out_features=256000, bias=False)
) at revision main. Error: Repo id must be a string, not <class 'transformers.models.gemma2.modeling_gemma2.Gemma2ForCausalLM'>: 'Gemma2ForCausalLM(
  (model): Gemma2Model(
    (embed_tokens): Embedding(256000, 3584, padding_idx=0)
    (layers): ModuleList(
      (0-41): 42 x Gemma2DecoderLayer(
        (self_attn): Gemma2Attention(
          (q_proj): Linear(in_features=3584, out_features=4096, bias=False)
          (k_proj): Linear(in_features=3584, out_features=2048, bias=False)
          (v_proj): Linear(in_features=3584, out_features=2048, bias=False)
          (o_proj): Linear(in_features=4096, out_features=3584, bias=False)
          (rotary_emb): Gemma2RotaryEmbedding()
        )
        (mlp): Gemma2MLP(
          (gate_proj): Linear(in_features=3584, out_features=14336, bias=False)
          (up_proj): Linear(in_features=3584, out_features=14336, bias=False)
          (down_proj): Linear(in_features=14336, out_features=3584, bias=False)
          (act_fn): PytorchGELUTanh()
        )
        (input_layernorm): Gemma2RMSNorm((3584,), eps=1e-06)
        (pre_feedforward_layernorm): Gemma2RMSNorm((3584,), eps=1e-06)
        (post_feedforward_layernorm): Gemma2RMSNorm((3584,), eps=1e-06)
        (post_attention_layernorm): Gemma2RMSNorm((3584,), eps=1e-06)
      )
    )
    (norm): Gemma2RMSNorm((3584,), eps=1e-06)
  )
  (lm_head): Linear(in_features=3584, out_features=256000, bias=False)
)'.
Running probing evals
forget_indices: range(0, 64)
forget_indices: range(0, 64)
basketball 377
  0%|          | 0/12 [00:00<?, ?it/s]Asking to truncate to max_length but no maximum length is provided and the model has no predefined maximum length. Default to no truncation.
  8%|▊         | 1/12 [00:00<00:01,  7.93it/s] 17%|█▋        | 2/12 
…
