…
4/60168 [19:33<00:00, 27.32it/s]Running loglikelihood requests: 100%|â–ˆâ–ˆâ–ˆâ–ˆâ–ˆâ–ˆâ–ˆâ–ˆâ–ˆâ–‰| 60158/60168 [19:34<00:00, 27.68it/s]Running loglikelihood requests: 100%|â–ˆâ–ˆâ–ˆâ–ˆâ–ˆâ–ˆâ–ˆâ–ˆâ–ˆâ–‰| 60161/60168 [19:34<00:00, 22.96it/s]Running loglikelihood requests: 100%|â–ˆâ–ˆâ–ˆâ–ˆâ–ˆâ–ˆâ–ˆâ–ˆâ–ˆâ–‰| 60166/60168 [19:34<00:00, 26.28it/s]Running loglikelihood requests: 100%|â–ˆâ–ˆâ–ˆâ–ˆâ–ˆâ–ˆâ–ˆâ–ˆâ–ˆâ–ˆ| 60168/60168 [19:34<00:00, 51.23it/s]
2024-11-26:09:12:55,269 WARNING  [huggingface.py:1353] Failed to get model SHA for Gemma2ForCausalLM(
  (model): Gemma2Model(
    (embed_tokens): Embedding(256000, 3584, padding_idx=0)
    (layers): ModuleList(
      (0-41): 42 x Gemma2DecoderLayer(
        (self_attn): Gemma2Attention(
          (q_proj): Linear(in_features=3584, out_features=4096, bias=False)
          (k_proj): Linear(in_features=3584, out_features=2048, bias=False)
          (v_proj): Linear(in_features=3584, out_features=2048, bias=False)
          (o_proj): Linear(in_features=4096, out_features=3584, bias=False)
          (rotary_emb): Gemma2RotaryEmbedding()
        )
        (mlp): Gemma2MLP(
          (gate_proj): Linear(in_features=3584, out_features=14336, bias=False)
          (up_proj): Linear(in_features=3584, out_features=14336, bias=False)
          (down_proj): Linear(in_features=14336, out_features=3584, bias=False)
          (act_fn): PytorchGELUTanh()
        )
        (input_layernorm): Gemma2RMSNorm((3584,), eps=1e-06)
        (pre_feedforward_layernorm): Gemma2RMSNorm((3584,), eps=1e-06)
        (post_feedforward_layernorm): Gemma2RMSNorm((3584,), eps=1e-06)
        (post_attention_layernorm): Gemma2RMSNorm((3584,), eps=1e-06)
      )
    )
    (norm): Gemma2RMSNorm((3584,), eps=1e-06)
  )
  (lm_head): Linear(in_features=3584, out_features=256000, bias=False)
) at revision main. Error: Repo id must be a string, not <class 'transformers.models.gemma2.modeling_gemma2.Gemma2ForCausalLM'>: 'Gemma2ForCausalLM(
  (model): Gemma2Model(
    (embed_tokens): Embedding(256000, 3584, padding_idx=0)
    (layers): ModuleList(
      (0-41): 42 x Gemma2DecoderLayer(
        (self_attn): Gemma2Attention(
          (q_proj): Linear(in_features=3584, out_features=4096, bias=False)
          (k_proj): Linear(in_features=3584, out_features=2048, bias=False)
          (v_proj): Linear(in_features=3584, out_features=2048, bias=False)
          (o_proj): Linear(in_features=4096, out_features=3584, bias=False)
          (rotary_emb): Gemma2RotaryEmbedding()
        )
        (mlp): Gemma2MLP(
          (gate_proj): Linear(in_features=3584, out_features=14336, bias=False)
          (up_proj): Linear(in_features=3584, out_features=14336, bias=False)
          (down_proj): Linear(in_features=14336, out_features=3584, bias=False)
          (act_fn): PytorchGELUTanh()
        )
        (input_layernorm): Gemma2RMSNorm((3584,), eps=1e-06)
        (pre_feedforward_layernorm): Gemma2RMSNorm((3584,), eps=1e-06)
        (post_feedforward_layernorm): Gemma2RMSNorm((3584,), eps=1e-06)
        (post_attention_layernorm): Gemma2RMSNorm((3584,), eps=1e-06)
      )
    )
    (norm): Gemma2RMSNorm((3584,), eps=1e-06)
  )
  (lm_head): Linear(in_features=3584, out_features=256000, bias=False)
)'.
Running softprompt evals
Original forget split is first_64_unsplit, relearning with first_64_split
forget_indices: range(0, 64)
Are you sure you want to split the forget set in a forget loss? Mostly makes sense in latent knowledge and relearning
  0%|          | 0/128 [00:00<?, ?it/s]  0%|          | 0/128 [00:00<?, ?it/s, toward=10.3, total
…
