…
68 [08:10<00:00, 54.36it/s]Running loglikelihood requests: 100%|█████████▉| 60142/60168 [08:10<00:00, 55.42it/s]Running loglikelihood requests: 100%|█████████▉| 60149/60168 [08:10<00:00, 58.94it/s]Running loglikelihood requests: 100%|█████████▉| 60156/60168 [08:11<00:00, 61.10it/s]Running loglikelihood requests: 100%|█████████▉| 60163/60168 [08:11<00:00, 62.84it/s]Running loglikelihood requests: 100%|██████████| 60168/60168 [08:11<00:00, 122.49it/s]
2024-11-21:06:38:15,219 WARNING  [huggingface.py:1353] Failed to get model SHA for LlamaForCausalLM(
  (model): LlamaModel(
    (embed_tokens): Embedding(128256, 4096)
    (layers): ModuleList(
      (0-31): 32 x LlamaDecoderLayer(
        (self_attn): LlamaSdpaAttention(
          (q_proj): Linear(in_features=4096, out_features=4096, bias=False)
          (k_proj): Linear(in_features=4096, out_features=1024, bias=False)
          (v_proj): Linear(in_features=4096, out_features=1024, bias=False)
          (o_proj): Linear(in_features=4096, out_features=4096, bias=False)
          (rotary_emb): LlamaRotaryEmbedding()
        )
        (mlp): LlamaMLP(
          (gate_proj): Linear(in_features=4096, out_features=14336, bias=False)
          (up_proj): Linear(in_features=4096, out_features=14336, bias=False)
          (down_proj): Linear(in_features=14336, out_features=4096, bias=False)
          (act_fn): SiLU()
        )
        (input_layernorm): LlamaRMSNorm((4096,), eps=1e-05)
        (post_attention_layernorm): LlamaRMSNorm((4096,), eps=1e-05)
      )
    )
    (norm): LlamaRMSNorm((4096,), eps=1e-05)
    (rotary_emb): LlamaRotaryEmbedding()
  )
  (lm_head): Linear(in_features=4096, out_features=128256, bias=False)
) at revision main. Error: Repo id must be a string, not <class 'transformers.models.llama.modeling_llama.LlamaForCausalLM'>: 'LlamaForCausalLM(
  (model): LlamaModel(
    (embed_tokens): Embedding(128256, 4096)
    (layers): ModuleList(
      (0-31): 32 x LlamaDecoderLayer(
        (self_attn): LlamaSdpaAttention(
          (q_proj): Linear(in_features=4096, out_features=4096, bias=False)
          (k_proj): Linear(in_features=4096, out_features=1024, bias=False)
          (v_proj): Linear(in_features=4096, out_features=1024, bias=False)
          (o_proj): Linear(in_features=4096, out_features=4096, bias=False)
          (rotary_emb): LlamaRotaryEmbedding()
        )
        (mlp): LlamaMLP(
          (gate_proj): Linear(in_features=4096, out_features=14336, bias=False)
          (up_proj): Linear(in_features=4096, out_features=14336, bias=False)
          (down_proj): Linear(in_features=14336, out_features=4096, bias=False)
          (act_fn): SiLU()
        )
        (input_layernorm): LlamaRMSNorm((4096,), eps=1e-05)
        (post_attention_layernorm): LlamaRMSNorm((4096,), eps=1e-05)
      )
    )
    (norm): LlamaRMSNorm((4096,), eps=1e-05)
    (rotary_emb): LlamaRotaryEmbedding()
  )
  (lm_head): Linear(in_features=4096, out_features=128256, bias=False)
)'.
14.97341251373291
Running softprompt evals
Why is the forget_split originally train-test-splitted? This probably shouldn't be happening
forget_indices: Index([   2,    3,    5,    8,   19,   25,   29,   35,   49,   50,
       ...
       1541, 1544, 1545, 1547, 1549, 1553, 1554, 1555, 1557, 1558],
      dtype='int64', length=486)
Are you sure you want to split the forget set in a forget loss? Mostly makes sense in latent knowledge and unlearning
…
