…
38/60168 [07:58<00:00, 63.08it/s]Running loglikelihood requests: 100%|â–ˆâ–ˆâ–ˆâ–ˆâ–ˆâ–ˆâ–ˆâ–ˆâ–ˆâ–‰| 60150/60168 [07:58<00:00, 75.51it/s]Running loglikelihood requests: 100%|â–ˆâ–ˆâ–ˆâ–ˆâ–ˆâ–ˆâ–ˆâ–ˆâ–ˆâ–‰| 60159/60168 [07:58<00:00, 69.03it/s]Running loglikelihood requests: 100%|â–ˆâ–ˆâ–ˆâ–ˆâ–ˆâ–ˆâ–ˆâ–ˆâ–ˆâ–‰| 60167/60168 [07:58<00:00, 66.57it/s]Running loglikelihood requests: 100%|â–ˆâ–ˆâ–ˆâ–ˆâ–ˆâ–ˆâ–ˆâ–ˆâ–ˆâ–ˆ| 60168/60168 [07:58<00:00, 125.67it/s]
2024-11-21:04:12:17,509 WARNING  [huggingface.py:1353] Failed to get model SHA for GemmaForCausalLM(
  (model): GemmaModel(
    (embed_tokens): Embedding(256000, 3072, padding_idx=0)
    (layers): ModuleList(
      (0-27): 28 x GemmaDecoderLayer(
        (self_attn): GemmaSdpaAttention(
          (q_proj): Linear(in_features=3072, out_features=4096, bias=False)
          (k_proj): Linear(in_features=3072, out_features=4096, bias=False)
          (v_proj): Linear(in_features=3072, out_features=4096, bias=False)
          (o_proj): Linear(in_features=4096, out_features=3072, bias=False)
          (rotary_emb): GemmaRotaryEmbedding()
        )
        (mlp): GemmaMLP(
          (gate_proj): Linear(in_features=3072, out_features=24576, bias=False)
          (up_proj): Linear(in_features=3072, out_features=24576, bias=False)
          (down_proj): Linear(in_features=24576, out_features=3072, bias=False)
          (act_fn): PytorchGELUTanh()
        )
        (input_layernorm): GemmaRMSNorm((3072,), eps=1e-06)
        (post_attention_layernorm): GemmaRMSNorm((3072,), eps=1e-06)
      )
    )
    (norm): GemmaRMSNorm((3072,), eps=1e-06)
  )
  (lm_head): Linear(in_features=3072, out_features=256000, bias=False)
) at revision main. Error: Repo id must be a string, not <class 'transformers.models.gemma.modeling_gemma.GemmaForCausalLM'>: 'GemmaForCausalLM(
  (model): GemmaModel(
    (embed_tokens): Embedding(256000, 3072, padding_idx=0)
    (layers): ModuleList(
      (0-27): 28 x GemmaDecoderLayer(
        (self_attn): GemmaSdpaAttention(
          (q_proj): Linear(in_features=3072, out_features=4096, bias=False)
          (k_proj): Linear(in_features=3072, out_features=4096, bias=False)
          (v_proj): Linear(in_features=3072, out_features=4096, bias=False)
          (o_proj): Linear(in_features=4096, out_features=3072, bias=False)
          (rotary_emb): GemmaRotaryEmbedding()
        )
        (mlp): GemmaMLP(
          (gate_proj): Linear(in_features=3072, out_features=24576, bias=False)
          (up_proj): Linear(in_features=3072, out_features=24576, bias=False)
          (down_proj): Linear(in_features=24576, out_features=3072, bias=False)
          (act_fn): PytorchGELUTanh()
        )
        (input_layernorm): GemmaRMSNorm((3072,), eps=1e-06)
        (post_attention_layernorm): GemmaRMSNorm((3072,), eps=1e-06)
      )
    )
    (norm): GemmaRMSNorm((3072,), eps=1e-06)
  )
  (lm_head): Linear(in_features=3072, out_features=256000, bias=False)
)'.
15.918552875518799
Running softprompt evals
Why is the forget_split originally train-test-splitted? This probably shouldn't be happening
forget_indices: Index([   9,   11,   12,   13,   15,   17,   20,   21,   31,   32,
       ...
       1519, 1520, 1525, 1526, 1533, 1536, 1540, 1543, 1552, 1556],
      dtype='int64', length=490)
Are you sure you want to split the forget set in a forget loss? Mostly makes sense in latent knowledge and unlearning
…
