…
38/60168 [08:14<00:00, 61.64it/s]Running loglikelihood requests: 100%|â–ˆâ–ˆâ–ˆâ–ˆâ–ˆâ–ˆâ–ˆâ–ˆâ–ˆâ–‰| 60150/60168 [08:14<00:00, 73.92it/s]Running loglikelihood requests: 100%|â–ˆâ–ˆâ–ˆâ–ˆâ–ˆâ–ˆâ–ˆâ–ˆâ–ˆâ–‰| 60158/60168 [08:14<00:00, 69.43it/s]Running loglikelihood requests: 100%|â–ˆâ–ˆâ–ˆâ–ˆâ–ˆâ–ˆâ–ˆâ–ˆâ–ˆâ–‰| 60166/60168 [08:14<00:00, 66.08it/s]Running loglikelihood requests: 100%|â–ˆâ–ˆâ–ˆâ–ˆâ–ˆâ–ˆâ–ˆâ–ˆâ–ˆâ–ˆ| 60168/60168 [08:14<00:00, 121.59it/s]
2024-11-25:11:15:41,837 WARNING  [huggingface.py:1353] Failed to get model SHA for GemmaForCausalLM(
  (model): GemmaModel(
    (embed_tokens): Embedding(256000, 3072, padding_idx=0)
    (layers): ModuleList(
      (0-27): 28 x GemmaDecoderLayer(
        (self_attn): GemmaSdpaAttention(
          (q_proj): Linear(in_features=3072, out_features=4096, bias=False)
          (k_proj): Linear(in_features=3072, out_features=4096, bias=False)
          (v_proj): Linear(in_features=3072, out_features=4096, bias=False)
          (o_proj): Linear(in_features=4096, out_features=3072, bias=False)
          (rotary_emb): GemmaRotaryEmbedding()
        )
        (mlp): GemmaMLP(
          (gate_proj): Linear(in_features=3072, out_features=24576, bias=False)
          (up_proj): Linear(in_features=3072, out_features=24576, bias=False)
          (down_proj): Linear(in_features=24576, out_features=3072, bias=False)
          (act_fn): PytorchGELUTanh()
        )
        (input_layernorm): GemmaRMSNorm((3072,), eps=1e-06)
        (post_attention_layernorm): GemmaRMSNorm((3072,), eps=1e-06)
      )
    )
    (norm): GemmaRMSNorm((3072,), eps=1e-06)
  )
  (lm_head): Linear(in_features=3072, out_features=256000, bias=False)
) at revision main. Error: Repo id must be a string, not <class 'transformers.models.gemma.modeling_gemma.GemmaForCausalLM'>: 'GemmaForCausalLM(
  (model): GemmaModel(
    (embed_tokens): Embedding(256000, 3072, padding_idx=0)
    (layers): ModuleList(
      (0-27): 28 x GemmaDecoderLayer(
        (self_attn): GemmaSdpaAttention(
          (q_proj): Linear(in_features=3072, out_features=4096, bias=False)
          (k_proj): Linear(in_features=3072, out_features=4096, bias=False)
          (v_proj): Linear(in_features=3072, out_features=4096, bias=False)
          (o_proj): Linear(in_features=4096, out_features=3072, bias=False)
          (rotary_emb): GemmaRotaryEmbedding()
        )
        (mlp): GemmaMLP(
          (gate_proj): Linear(in_features=3072, out_features=24576, bias=False)
          (up_proj): Linear(in_features=3072, out_features=24576, bias=False)
          (down_proj): Linear(in_features=24576, out_features=3072, bias=False)
          (act_fn): PytorchGELUTanh()
        )
        (input_layernorm): GemmaRMSNorm((3072,), eps=1e-06)
        (post_attention_layernorm): GemmaRMSNorm((3072,), eps=1e-06)
      )
    )
    (norm): GemmaRMSNorm((3072,), eps=1e-06)
  )
  (lm_head): Linear(in_features=3072, out_features=256000, bias=False)
)'.
Running softprompt evals
Original forget split is first_64_unsplit, relearning with first_64_split
forget_indices: range(0, 64)
Are you sure you want to split the forget set in a forget loss? Mostly makes sense in latent knowledge and relearning
  0%|          | 0/128 [00:00<?, ?it/s]  0%|          | 0/128 [00:00<?, ?it/s, toward=11.2, total
…
