…
8 [20:03<00:00, 31.60it/s]Running loglikelihood requests: 100%|█████████▉| 60154/60168 [20:03<00:00, 26.83it/s]Running loglikelihood requests: 100%|█████████▉| 60158/60168 [20:04<00:00, 27.15it/s]Running loglikelihood requests: 100%|█████████▉| 60161/60168 [20:04<00:00, 22.50it/s]Running loglikelihood requests: 100%|█████████▉| 60166/60168 [20:04<00:00, 25.66it/s]Running loglikelihood requests: 100%|██████████| 60168/60168 [20:04<00:00, 49.95it/s]
2024-11-21:21:06:20,280 WARNING  [huggingface.py:1353] Failed to get model SHA for Gemma2ForCausalLM(
  (model): Gemma2Model(
    (embed_tokens): Embedding(256000, 3584, padding_idx=0)
    (layers): ModuleList(
      (0-41): 42 x Gemma2DecoderLayer(
        (self_attn): Gemma2Attention(
          (q_proj): Linear(in_features=3584, out_features=4096, bias=False)
          (k_proj): Linear(in_features=3584, out_features=2048, bias=False)
          (v_proj): Linear(in_features=3584, out_features=2048, bias=False)
          (o_proj): Linear(in_features=4096, out_features=3584, bias=False)
          (rotary_emb): Gemma2RotaryEmbedding()
        )
        (mlp): Gemma2MLP(
          (gate_proj): Linear(in_features=3584, out_features=14336, bias=False)
          (up_proj): Linear(in_features=3584, out_features=14336, bias=False)
          (down_proj): Linear(in_features=14336, out_features=3584, bias=False)
          (act_fn): PytorchGELUTanh()
        )
        (input_layernorm): Gemma2RMSNorm((3584,), eps=1e-06)
        (pre_feedforward_layernorm): Gemma2RMSNorm((3584,), eps=1e-06)
        (post_feedforward_layernorm): Gemma2RMSNorm((3584,), eps=1e-06)
        (post_attention_layernorm): Gemma2RMSNorm((3584,), eps=1e-06)
      )
    )
    (norm): Gemma2RMSNorm((3584,), eps=1e-06)
  )
  (lm_head): Linear(in_features=3584, out_features=256000, bias=False)
) at revision main. Error: Repo id must be a string, not <class 'transformers.models.gemma2.modeling_gemma2.Gemma2ForCausalLM'>: 'Gemma2ForCausalLM(
  (model): Gemma2Model(
    (embed_tokens): Embedding(256000, 3584, padding_idx=0)
    (layers): ModuleList(
      (0-41): 42 x Gemma2DecoderLayer(
        (self_attn): Gemma2Attention(
          (q_proj): Linear(in_features=3584, out_features=4096, bias=False)
          (k_proj): Linear(in_features=3584, out_features=2048, bias=False)
          (v_proj): Linear(in_features=3584, out_features=2048, bias=False)
          (o_proj): Linear(in_features=4096, out_features=3584, bias=False)
          (rotary_emb): Gemma2RotaryEmbedding()
        )
        (mlp): Gemma2MLP(
          (gate_proj): Linear(in_features=3584, out_features=14336, bias=False)
          (up_proj): Linear(in_features=3584, out_features=14336, bias=False)
          (down_proj): Linear(in_features=14336, out_features=3584, bias=False)
          (act_fn): PytorchGELUTanh()
        )
        (input_layernorm): Gemma2RMSNorm((3584,), eps=1e-06)
        (pre_feedforward_layernorm): Gemma2RMSNorm((3584,), eps=1e-06)
        (post_feedforward_layernorm): Gemma2RMSNorm((3584,), eps=1e-06)
        (post_attention_layernorm): Gemma2RMSNorm((3584,), eps=1e-06)
      )
    )
    (norm): Gemma2RMSNorm((3584,), eps=1e-06)
  )
  (lm_head): Linear(in_features=3584, out_features=256000, bias=False)
)'.
17.22990846633911
Running softprompt evals
Why is the forget_split originally train-test-splitted? This probably shouldn't be happening
forget_indices: Index([   0,    1,    4,    6,    7,   10,   14,   16,   18,   22,
       ...
       1528, 1530, 1532, 1535, 1539, 1542, 1546, 1548, 1550, 1551],
      dtype='int64', length=583)
Are you sure you want to split the forget set in a forget loss? Mostly makes sense in latent knowledge and unlearning
…
