…
68 [08:03<00:00, 54.75it/s]Running loglikelihood requests: 100%|█████████▉| 60142/60168 [08:04<00:00, 55.60it/s]Running loglikelihood requests: 100%|█████████▉| 60149/60168 [08:04<00:00, 59.09it/s]Running loglikelihood requests: 100%|█████████▉| 60156/60168 [08:04<00:00, 61.43it/s]Running loglikelihood requests: 100%|█████████▉| 60163/60168 [08:04<00:00, 63.07it/s]Running loglikelihood requests: 100%|██████████| 60168/60168 [08:04<00:00, 124.19it/s]
2024-11-19:11:17:24,978 WARNING  [huggingface.py:1353] Failed to get model SHA for LlamaForCausalLM(
  (model): LlamaModel(
    (embed_tokens): Embedding(128256, 4096)
    (layers): ModuleList(
      (0-31): 32 x LlamaDecoderLayer(
        (self_attn): LlamaSdpaAttention(
          (q_proj): Linear(in_features=4096, out_features=4096, bias=False)
          (k_proj): Linear(in_features=4096, out_features=1024, bias=False)
          (v_proj): Linear(in_features=4096, out_features=1024, bias=False)
          (o_proj): Linear(in_features=4096, out_features=4096, bias=False)
          (rotary_emb): LlamaRotaryEmbedding()
        )
        (mlp): LlamaMLP(
          (gate_proj): Linear(in_features=4096, out_features=14336, bias=False)
          (up_proj): Linear(in_features=4096, out_features=14336, bias=False)
          (down_proj): Linear(in_features=14336, out_features=4096, bias=False)
          (act_fn): SiLU()
        )
        (input_layernorm): LlamaRMSNorm((4096,), eps=1e-05)
        (post_attention_layernorm): LlamaRMSNorm((4096,), eps=1e-05)
      )
    )
    (norm): LlamaRMSNorm((4096,), eps=1e-05)
    (rotary_emb): LlamaRotaryEmbedding()
  )
  (lm_head): Linear(in_features=4096, out_features=128256, bias=False)
) at revision main. Error: Repo id must be a string, not <class 'transformers.models.llama.modeling_llama.LlamaForCausalLM'>: 'LlamaForCausalLM(
  (model): LlamaModel(
    (embed_tokens): Embedding(128256, 4096)
    (layers): ModuleList(
      (0-31): 32 x LlamaDecoderLayer(
        (self_attn): LlamaSdpaAttention(
          (q_proj): Linear(in_features=4096, out_features=4096, bias=False)
          (k_proj): Linear(in_features=4096, out_features=1024, bias=False)
          (v_proj): Linear(in_features=4096, out_features=1024, bias=False)
          (o_proj): Linear(in_features=4096, out_features=4096, bias=False)
          (rotary_emb): LlamaRotaryEmbedding()
        )
        (mlp): LlamaMLP(
          (gate_proj): Linear(in_features=4096, out_features=14336, bias=False)
          (up_proj): Linear(in_features=4096, out_features=14336, bias=False)
          (down_proj): Linear(in_features=14336, out_features=4096, bias=False)
          (act_fn): SiLU()
        )
        (input_layernorm): LlamaRMSNorm((4096,), eps=1e-05)
        (post_attention_layernorm): LlamaRMSNorm((4096,), eps=1e-05)
      )
    )
    (norm): LlamaRMSNorm((4096,), eps=1e-05)
    (rotary_emb): LlamaRotaryEmbedding()
  )
  (lm_head): Linear(in_features=4096, out_features=128256, bias=False)
)'.
Running probing evals
forget_indices: range(0, 64)
forget_indices: range(0, 64)
basketball 377
  0%|          | 0/12 [00:00<?, ?it/s]Asking to truncate to max_length but no maximum length is provided and the model has no predefined maximum length. Default to no truncation.
 25%|██▌       | 3/12 [00:00<00:00, 18.07it/s] 42%|████▏     | 5/12 [00:00<00:00, 16.22it/s] 58%|█████▊    | 7/12 [00:00<00:00, 14.83it/s] 75%|███████▌  | 9/12 [00:00<00:00, 14.55it/s] 92%|█████████▏| 11/12 [00:00<00:00, 14.57it/s]100%|██████████| 12/12 [00:00<00:00, 15.01it/s]
…
