…
41/60168 [08:05<00:00, 64.95it/s]Running loglikelihood requests: 100%|â–ˆâ–ˆâ–ˆâ–ˆâ–ˆâ–ˆâ–ˆâ–ˆâ–ˆâ–‰| 60151/60168 [08:05<00:00, 72.85it/s]Running loglikelihood requests: 100%|â–ˆâ–ˆâ–ˆâ–ˆâ–ˆâ–ˆâ–ˆâ–ˆâ–ˆâ–‰| 60159/60168 [08:05<00:00, 68.29it/s]Running loglikelihood requests: 100%|â–ˆâ–ˆâ–ˆâ–ˆâ–ˆâ–ˆâ–ˆâ–ˆâ–ˆâ–‰| 60166/60168 [08:05<00:00, 67.43it/s]Running loglikelihood requests: 100%|â–ˆâ–ˆâ–ˆâ–ˆâ–ˆâ–ˆâ–ˆâ–ˆâ–ˆâ–ˆ| 60168/60168 [08:05<00:00, 123.89it/s]
2024-11-20:18:05:41,621 WARNING  [huggingface.py:1353] Failed to get model SHA for GemmaForCausalLM(
  (model): GemmaModel(
    (embed_tokens): Embedding(256000, 3072, padding_idx=0)
    (layers): ModuleList(
      (0-27): 28 x GemmaDecoderLayer(
        (self_attn): GemmaSdpaAttention(
          (q_proj): Linear(in_features=3072, out_features=4096, bias=False)
          (k_proj): Linear(in_features=3072, out_features=4096, bias=False)
          (v_proj): Linear(in_features=3072, out_features=4096, bias=False)
          (o_proj): Linear(in_features=4096, out_features=3072, bias=False)
          (rotary_emb): GemmaRotaryEmbedding()
        )
        (mlp): GemmaMLP(
          (gate_proj): Linear(in_features=3072, out_features=24576, bias=False)
          (up_proj): Linear(in_features=3072, out_features=24576, bias=False)
          (down_proj): Linear(in_features=24576, out_features=3072, bias=False)
          (act_fn): PytorchGELUTanh()
        )
        (input_layernorm): GemmaRMSNorm((3072,), eps=1e-06)
        (post_attention_layernorm): GemmaRMSNorm((3072,), eps=1e-06)
      )
    )
    (norm): GemmaRMSNorm((3072,), eps=1e-06)
  )
  (lm_head): Linear(in_features=3072, out_features=256000, bias=False)
) at revision main. Error: Repo id must be a string, not <class 'transformers.models.gemma.modeling_gemma.GemmaForCausalLM'>: 'GemmaForCausalLM(
  (model): GemmaModel(
    (embed_tokens): Embedding(256000, 3072, padding_idx=0)
    (layers): ModuleList(
      (0-27): 28 x GemmaDecoderLayer(
        (self_attn): GemmaSdpaAttention(
          (q_proj): Linear(in_features=3072, out_features=4096, bias=False)
          (k_proj): Linear(in_features=3072, out_features=4096, bias=False)
          (v_proj): Linear(in_features=3072, out_features=4096, bias=False)
          (o_proj): Linear(in_features=4096, out_features=3072, bias=False)
          (rotary_emb): GemmaRotaryEmbedding()
        )
        (mlp): GemmaMLP(
          (gate_proj): Linear(in_features=3072, out_features=24576, bias=False)
          (up_proj): Linear(in_features=3072, out_features=24576, bias=False)
          (down_proj): Linear(in_features=24576, out_features=3072, bias=False)
          (act_fn): PytorchGELUTanh()
        )
        (input_layernorm): GemmaRMSNorm((3072,), eps=1e-06)
        (post_attention_layernorm): GemmaRMSNorm((3072,), eps=1e-06)
      )
    )
    (norm): GemmaRMSNorm((3072,), eps=1e-06)
  )
  (lm_head): Linear(in_features=3072, out_features=256000, bias=False)
)'.
Running probing evals
forget_indices: range(0, 16)
forget_indices: range(0, 16)
football 471
  0%|          | 0/15 [00:00<?, ?it/s]Asking to truncate to max_length but no maximum length is provided and the model has no predefined maximum length. Default to no truncation.
 13%|â–ˆâ–Ž        | 2/15 [00:00<00:00, 19.75it/s] 27%|â–ˆâ–ˆâ–‹      
…
