…
8 [19:51<00:00, 32.03it/s]Running loglikelihood requests: 100%|█████████▉| 60154/60168 [19:52<00:00, 27.22it/s]Running loglikelihood requests: 100%|█████████▉| 60158/60168 [19:52<00:00, 27.53it/s]Running loglikelihood requests: 100%|█████████▉| 60161/60168 [19:52<00:00, 22.79it/s]Running loglikelihood requests: 100%|█████████▉| 60166/60168 [19:52<00:00, 26.06it/s]Running loglikelihood requests: 100%|██████████| 60168/60168 [19:52<00:00, 50.45it/s]
2024-11-21:21:08:25,679 WARNING  [huggingface.py:1353] Failed to get model SHA for Gemma2ForCausalLM(
  (model): Gemma2Model(
    (embed_tokens): Embedding(256000, 3584, padding_idx=0)
    (layers): ModuleList(
      (0-41): 42 x Gemma2DecoderLayer(
        (self_attn): Gemma2Attention(
          (q_proj): Linear(in_features=3584, out_features=4096, bias=False)
          (k_proj): Linear(in_features=3584, out_features=2048, bias=False)
          (v_proj): Linear(in_features=3584, out_features=2048, bias=False)
          (o_proj): Linear(in_features=4096, out_features=3584, bias=False)
          (rotary_emb): Gemma2RotaryEmbedding()
        )
        (mlp): Gemma2MLP(
          (gate_proj): Linear(in_features=3584, out_features=14336, bias=False)
          (up_proj): Linear(in_features=3584, out_features=14336, bias=False)
          (down_proj): Linear(in_features=14336, out_features=3584, bias=False)
          (act_fn): PytorchGELUTanh()
        )
        (input_layernorm): Gemma2RMSNorm((3584,), eps=1e-06)
        (pre_feedforward_layernorm): Gemma2RMSNorm((3584,), eps=1e-06)
        (post_feedforward_layernorm): Gemma2RMSNorm((3584,), eps=1e-06)
        (post_attention_layernorm): Gemma2RMSNorm((3584,), eps=1e-06)
      )
    )
    (norm): Gemma2RMSNorm((3584,), eps=1e-06)
  )
  (lm_head): Linear(in_features=3584, out_features=256000, bias=False)
) at revision main. Error: Repo id must be a string, not <class 'transformers.models.gemma2.modeling_gemma2.Gemma2ForCausalLM'>: 'Gemma2ForCausalLM(
  (model): Gemma2Model(
    (embed_tokens): Embedding(256000, 3584, padding_idx=0)
    (layers): ModuleList(
      (0-41): 42 x Gemma2DecoderLayer(
        (self_attn): Gemma2Attention(
          (q_proj): Linear(in_features=3584, out_features=4096, bias=False)
          (k_proj): Linear(in_features=3584, out_features=2048, bias=False)
          (v_proj): Linear(in_features=3584, out_features=2048, bias=False)
          (o_proj): Linear(in_features=4096, out_features=3584, bias=False)
          (rotary_emb): Gemma2RotaryEmbedding()
        )
        (mlp): Gemma2MLP(
          (gate_proj): Linear(in_features=3584, out_features=14336, bias=False)
          (up_proj): Linear(in_features=3584, out_features=14336, bias=False)
          (down_proj): Linear(in_features=14336, out_features=3584, bias=False)
          (act_fn): PytorchGELUTanh()
        )
        (input_layernorm): Gemma2RMSNorm((3584,), eps=1e-06)
        (pre_feedforward_layernorm): Gemma2RMSNorm((3584,), eps=1e-06)
        (post_feedforward_layernorm): Gemma2RMSNorm((3584,), eps=1e-06)
        (post_attention_layernorm): Gemma2RMSNorm((3584,), eps=1e-06)
      )
    )
    (norm): Gemma2RMSNorm((3584,), eps=1e-06)
  )
  (lm_head): Linear(in_features=3584, out_features=256000, bias=False)
)'.
Running probing evals
Model dtypes: {torch.bfloat16}
forget_indices: range(0, 16)
forget_indices: range(0, 16)
football 471
  0%|          | 0/15 [00:00<?, ?it/s]Asking to truncate to max_length but no maximum length is provided and the model has no predefined maximum length. Default to no truncation.
 13%|█▎        | 2/15 [00:00<00:01, 11.5
…
