…
41/60168 [08:05<00:00, 65.76it/s]Running loglikelihood requests: 100%|â–ˆâ–ˆâ–ˆâ–ˆâ–ˆâ–ˆâ–ˆâ–ˆâ–ˆâ–‰| 60151/60168 [08:05<00:00, 73.44it/s]Running loglikelihood requests: 100%|â–ˆâ–ˆâ–ˆâ–ˆâ–ˆâ–ˆâ–ˆâ–ˆâ–ˆâ–‰| 60159/60168 [08:06<00:00, 68.89it/s]Running loglikelihood requests: 100%|â–ˆâ–ˆâ–ˆâ–ˆâ–ˆâ–ˆâ–ˆâ–ˆâ–ˆâ–‰| 60167/60168 [08:06<00:00, 65.86it/s]Running loglikelihood requests: 100%|â–ˆâ–ˆâ–ˆâ–ˆâ–ˆâ–ˆâ–ˆâ–ˆâ–ˆâ–ˆ| 60168/60168 [08:06<00:00, 123.74it/s]
2024-11-25:10:11:32,189 WARNING  [huggingface.py:1353] Failed to get model SHA for GemmaForCausalLM(
  (model): GemmaModel(
    (embed_tokens): Embedding(256000, 3072, padding_idx=0)
    (layers): ModuleList(
      (0-27): 28 x GemmaDecoderLayer(
        (self_attn): GemmaSdpaAttention(
          (q_proj): Linear(in_features=3072, out_features=4096, bias=False)
          (k_proj): Linear(in_features=3072, out_features=4096, bias=False)
          (v_proj): Linear(in_features=3072, out_features=4096, bias=False)
          (o_proj): Linear(in_features=4096, out_features=3072, bias=False)
          (rotary_emb): GemmaRotaryEmbedding()
        )
        (mlp): GemmaMLP(
          (gate_proj): Linear(in_features=3072, out_features=24576, bias=False)
          (up_proj): Linear(in_features=3072, out_features=24576, bias=False)
          (down_proj): Linear(in_features=24576, out_features=3072, bias=False)
          (act_fn): PytorchGELUTanh()
        )
        (input_layernorm): GemmaRMSNorm((3072,), eps=1e-06)
        (post_attention_layernorm): GemmaRMSNorm((3072,), eps=1e-06)
      )
    )
    (norm): GemmaRMSNorm((3072,), eps=1e-06)
  )
  (lm_head): Linear(in_features=3072, out_features=256000, bias=False)
) at revision main. Error: Repo id must be a string, not <class 'transformers.models.gemma.modeling_gemma.GemmaForCausalLM'>: 'GemmaForCausalLM(
  (model): GemmaModel(
    (embed_tokens): Embedding(256000, 3072, padding_idx=0)
    (layers): ModuleList(
      (0-27): 28 x GemmaDecoderLayer(
        (self_attn): GemmaSdpaAttention(
          (q_proj): Linear(in_features=3072, out_features=4096, bias=False)
          (k_proj): Linear(in_features=3072, out_features=4096, bias=False)
          (v_proj): Linear(in_features=3072, out_features=4096, bias=False)
          (o_proj): Linear(in_features=4096, out_features=3072, bias=False)
          (rotary_emb): GemmaRotaryEmbedding()
        )
        (mlp): GemmaMLP(
          (gate_proj): Linear(in_features=3072, out_features=24576, bias=False)
          (up_proj): Linear(in_features=3072, out_features=24576, bias=False)
          (down_proj): Linear(in_features=24576, out_features=3072, bias=False)
          (act_fn): PytorchGELUTanh()
        )
        (input_layernorm): GemmaRMSNorm((3072,), eps=1e-06)
        (post_attention_layernorm): GemmaRMSNorm((3072,), eps=1e-06)
      )
    )
    (norm): GemmaRMSNorm((3072,), eps=1e-06)
  )
  (lm_head): Linear(in_features=3072, out_features=256000, bias=False)
)'.
Running softprompt evals
Original forget split is first_16_unsplit, relearning with first_16_split
forget_indices: range(0, 16)
Are you sure you want to split the forget set in a forget loss? Mostly makes sense in latent knowledge and relearning
  0%|          | 0/128 [00:00<?, ?it/s]  0%|          | 0/128 [00:00<?, ?it/s, toward=8.35, total
…
